cifar_net.pth (torch, 252005 bytes, 10 tensors)

conv1.weight f4 [6, 3, 5, 5]
000000 4d ca c0 bc 54 54 94 bd 6e c7 e2 3d fa 31 22 3c
       -0.023533965 -0.07242647 0.110731944 0.009899611
000010 f7 46 cb bb 5e c6 68 be a4 0d b8 be d3 47 92 be
       -0.006203528 -0.22731921 -0.35947907 -0.28570423
000020 fa 61 7d be b8 46 bd bd 24 28 d8 bd 67 4d 28 be
       -0.24744406 -0.09242004 -0.10554531 -0.16435777
000030 75 fb 06 be f7 5e e1 bd 43 e7 66 be 9e 2f b5 be
       -0.1318186 -0.11004441 -0.22549157 -0.35387892
000040 38 b8 af be fa 7a 62 be b6 0f 16 be 06 1c 3a be
       -0.34320235 -0.22117224 -0.14654431 -0.18174753
000050 27 ca 97 be 1f 38 af be fa d4 b8 be c3 9e 83 be
       -0.29646417 -0.34222504 -0.36099988 -0.25707063
000060 0e a4 44 be 89 94 3e 3d 90 0a 14 3e 34 26 02 3e
       -0.19203207 0.046528373 0.14457154 0.12709886
000070 d1 27 80 3e a3 d2 44 3e c8 bc 2d 3d 55 28 10 bc
       0.25030378 0.19220977 0.042416364 -0.008798678
000080 d4 51 65 3d 6c 2b e8 bc 8a 7f 00 3e 17 79 c1 3d
       0.05598624 -0.028341018 0.12548652 0.09446924
000090 12 1b 4f 3e 2e c7 5e 3e ec 98 0f 3e 63 a7 a7 3d
       0.2022517 0.21755669 0.14023179 0.08186223
0000a0 cf be 8b bd 27 ca a0 3c fd 00 c6 3b 12 89 e3 bb
       -0.06823503 0.019627644 0.0060425983 -0.0069438303
0000b0 91 9d 2b b9 e5 37 63 bd e4 22 ac 3d bb 6e 2c 3d
       -0.00016366529 -0.055473227 0.08405092 0.04209779
0000c0 a6 96 99 3d 46 54 01 be c3 e4 ad 3d fd 49 1a 3e
       0.07499437 -0.12629804 0.084908985 0.15067287
0000d0 8e e7 68 3e 13 2b 39 3e 24 da 31 3e 26 db 45 3d
       0.22744581 0.18082838 0.1736837 0.0483047
0000e0 74 2c 70 3d 76 68 7e 3b 15 ce 2d 3d bd 0b 1c bc
       0.058636144 0.0038819588 0.042432863 -0.009524283
0000f0 60 a0 8e 3e 4b f3 9f 3e 66 4f 4b 3e 0e f3 11 3e
       0.2785673 0.31240305 0.19854507 0.14252874
000100 b8 ac f0 3d 6c cb 82 3d 9c f0 12 3e b8 06 65 3e
       0.117516935 0.06386456 0.14349598 0.22365844
000110 b0 c8 0f 3e 52 e2 fc 3d 17 64 3d 3d b3 6b 32 3e
       0.140414 0.12347855 0.04623803 0.17423896
000120 9d 60 f0 3d 33 84 3d 3e f2 31 d0 bc 0b 1d 2f be
       0.117371775 0.18507461 -0.02541444 -0.17100923
000130 a7 5c 53 bc 1b b5 f1 bd 41 eb 43 be a5 4b 95 3d
       -0.012900508 -0.11802121 -0.19132711 0.07289819
000140 94 06 d7 bd 93 ce 44 be af be 17 3e 93 15 46 be
       -0.104993016 -0.19219427 0.14818834 -0.19344167
000150 2a b9 5e bd 19 64 34 be 81 31 87 be 1f f8 94 3e
       -0.054375805 -0.17616309 -0.26404956 0.2909555
000160 0b 2c 12 ba 94 c7 ba be c8 29 b5 3d d6 7a 86 3e
       -0.0005576021 -0.3648039 0.0884586 0.2626559
000170 81 97 a5 bc 31 6d 1b bd 93 43 4b be 67 63 49 3e
       -0.020213844 -0.03794593 -0.19849996 0.19666825
000180 32 99 16 3e da eb 06 bf 53 9d 97 be d1 6f 84 3d
       0.14706877 -0.5270363 -0.29612216 0.0646664
000190 1d bc 20 3e 94 52 13 3d b2 45 7a 3d 84 d7 8d 3d
       0.1569676 0.035967425 0.061101623 0.06925872
0001a0 ae 86 e0 3d 64 78 2f bc 1a bc 81 3d c9 33 ad 3e
       0.10963188 -0.010709856 0.06334706 0.3382857
0001b0 92 ab e8 3d 2a b4 11 be cb 54 9d 3c 09 17 42 bd
       0.113608494 -0.14228883 0.019205472 -0.04738525
0001c0 82 a3 13 3f 4c c7 60 3e aa 81 4c be f9 8b 45 3e
       0.5767137 0.21951026 -0.19971338 0.19291677
0001d0 35 27 bc 3e e1 42 87 3d f4 12 c3 3c bb ec 20 bd
       0.36748663 0.06604553 0.023812748 -0.039288264
0001e0 d9 71 ae 3e ca 8d 8f 3e db 2f 56 be 7d ae 85 be
       0.34071234 0.28037864 -0.20916693 -0.26109686
0001f0 e4 be 3f 3e a3 d1 90 bc 07 5c b4 bd 3f 94 e2 3b
       0.18725163 -0.017678088 -0.08806615 0.006914645
000200 b5 4b 07 be e1 7e 4c 3d 37 11 07 be c4 0d 34 be
       -0.13212474 0.04992569 -0.1319016 -0.17583376
000210 91 98 3d 3e 3e 44 b1 bd f6 ad a7 bd 21 7c 38 be
       0.1851523 -0.08655594 -0.08187477 -0.18016101
000220 4a 33 85 be bb 66 c7 3e 4d 1a 3c 3e 4f 26 92 be
       -0.26015693 0.38945565 0.18369408 -0.28544852
000230 77 74 2a 3e 45 a4 63 3e 2a a1 0a ba c2 28 e2 bd
       0.1664599 0.22230633 -0.00052882975 -0.1104293
000240 3e 6d fc bd 19 f6 2e 3e b8 21 f7 3d 61 cf ec be
       -0.12325524 0.17086066 0.12066978 -0.46251968
000250 d8 4c a2 be 43 80 3f 3e 2c 8f f3 3d cb c4 2c 3d
       -0.31699252 0.18701272 0.11892542 0.042179864
000260 32 48 31 3d e3 53 ef bd c8 25 57 bc 97 24 c3 be
       0.04328174 -0.11685922 -0.013131566 -0.38113853
000270 3f 94 c0 be 67 91 16 bf 62 a1 9b be 5f 31 02 be
       -0.37613103 -0.58815616 -0.30396563 -0.12714146
000280 35 f7 23 be c5 e5 a6 bd ff 2e 9c 3d ad a1 77 3e
       -0.16012271 -0.08149294 0.07626151 0.24182768
000290 d4 b3 1c 3e bb 4c 9a 3e 12 f1 08 3f 04 6e e3 3e
       0.15302974 0.30136666 0.53492844 0.44419873
0002a0 ef ca cd 3e e0 e6 77 3e 3b 27 6f 3d f1 4b 65 3d
       0.4019389 0.24209166 0.058387022 0.055980626
0002b0 d0 1f 7e bd 8c 08 27 bd cd c6 37 bd c9 3f 51 3e
       -0.062042058 -0.040779635 -0.044867326 0.20434488
0002c0 00 79 a5 3d 77 6d 8a 3c b8 fb 95 bd f8 79 e8 3c
       0.080797195 0.0168979 -0.07323402 0.028378472
0002d0 9f 21 eb be 13 72 13 bf 73 fb dc be ec c6 fd be
       -0.45924088 -0.5759594 -0.4316059 -0.49565828
0002e0 1d 31 84 be b5 74 59 be b2 34 cc bc d6 5a be 3d
       -0.2581872 -0.21235926 -0.02492747 0.09294669
0002f0 02 69 34 3e 27 88 31 3d c3 3b d7 3d 51 50 8b 3e
       0.17618182 0.043342736 0.105094455 0.27209714
000300 48 39 f0 3e c2 0a 21 3e 3e 97 f4 bb 2c 62 ef 3c
       0.46918702 0.1572676 -0.0074643185 0.029221617
000310 ea 7f b1 bc 22 3c 1f bd a0 0d 31 be 20 39 c1 bc
       -0.02166744 -0.038875706 -0.17290354 -0.02358681
000320 d8 10 c9 3e 1a 2c dc 3e 51 2d 0c 3e d6 55 86 3e
       0.39270663 0.43002397 0.13689162 0.26237363
000330 ea 93 6a 3e 67 c2 9c be 92 f8 c0 be 2a d9 9b be
       0.22907987 -0.30617067 -0.37689644 -0.3043912
000340 5d fe 54 be e0 b2 b4 3d 47 49 e6 bd 98 b3 10 bd
       -0.20800157 0.0882318 -0.11244445 -0.035327524
000350 22 77 91 3d 7a 1f 44 3e a4 b1 50 3e cc f1 ad 3c
       0.07102801 0.19152632 0.20380265 0.021233462
000360 7a 98 76 3e 73 29 3d 3e 45 57 2f 3e f8 f4 a1 bd
       0.24081603 0.18472843 0.17123134 -0.07908052
000370 43 e6 80 bd cd e7 86 bd d2 a0 84 be d3 40 12 be
       -0.06293919 -0.06587181 -0.25903946 -0.14282541
000380 56 1b 16 be 36 9e 53 3e 77 a4 06 bd 71 af 9a 3d
       -0.14658865 0.20665821 -0.03287169 0.07552994
000390 61 37 39 3e 27 30 98 3d 6e 5f b4 bc 94 0c 92 be
       0.18087532 0.07431059 -0.02201816 -0.2852522
0003a0 4c 3e 2b bd d4 71 88 3e b3 14 30 bd 0f 2c fd bd
       -0.041807458 0.26649344 -0.04298849 -0.12361919
0003b0 21 31 b4 be 9b f8 6e 3e e0 82 bc 3e f7 bf 4c bd
       -0.35193732 0.23337023 0.368186 -0.04998776
0003c0 37 f4 0e 3d b1 ba cc be 66 77 1c 3e 15 f8 43 3e
       0.03490087 -0.39986184 0.15279922 0.19137605
0003d0 ae 12 9d bd 9b c7 10 bd f2 16 89 be 6b ef eb bc
       -0.076695785 -0.03534661 -0.26775318 -0.028800687
0003e0 3e b8 4d 3e fb 36 b5 bd 19 4f e8 bd 71 ea 3a be
       0.20089814 -0.08848377 -0.11343212 -0.18253495
0003f0 ad 78 e1 bd 45 c8 10 bd 27 2f 29 be 7d b7 08 3d
       -0.11009345 -0.035347242 -0.16521893 0.033378113

conv1.bias f4 [6]
000000 90 27 d3 3d da 86 99 3d 05 ac 82 be 46 28 07 be
       0.1031028 0.07496424 -0.25521865 -0.13198957
000010 69 06 b7 be c4 bb b0 3d
       -0.35747078 0.086295635

conv2.weight f4 [16, 6, 5, 5]
000000 3e c9 16 3e 33 4e 00 bd a6 61 b6 ba 25 97 73 bd
       0.14725205 -0.031324577 -0.00139146 -0.059470315
000010 e9 99 cd bd f9 0e 08 3e e6 6a 03 3e c9 ef df bc
       -0.10039122 0.13286962 0.12833747 -0.027336018
000020 f0 eb 2d be 08 71 53 be d9 a8 84 3e 1c fd e1 3d
       -0.16984534 -0.20648587 0.2591007 0.11034605
000030 6c 27 1d be 4e d5 67 be cb 51 53 be 2c ac 54 3e
       -0.1534707 -0.22639963 -0.2063667 0.20768803
000040 06 b2 13 3e e3 d6 e6 bd 6e 4b 45 be dd d4 54 be
       0.1442338 -0.11271455 -0.19267055 -0.20784326
000050 b1 16 65 3e 2b 99 29 3e 49 ad 81 bc 6c 56 37 bd
       0.22371937 0.16562335 -0.0158297 -0.044760153
000060 3a 51 10 be 4e f3 4e 3c 27 79 fc 3d 60 93 21 3e
       -0.14093485 0.012631251 0.123277955 0.15778875
000070 15 e9 aa bd e0 35 15 be 18 74 33 bd d5 a3 dc 3d
       -0.08345238 -0.14571333 -0.043811888 0.10773436
000080 05 90 48 3e 8d 0e 1c 3d 86 d4 11 be 5d 0e 20 3d
       0.19586189 0.038099814 -0.14241228 0.039076198
000090 9e f5 02 3d dd 01 6d 3d 22 76 63 bb d5 a6 4d be
       0.03197252 0.057863105 -0.0034707864 -0.20083173
0000a0 9d b6 b6 3c 57 b4 79 3d 09 14 6b 3d 5d 48 0a bd
       0.022303874 0.060963 0.057392154 -0.033760417
0000b0 92 1f 07 be 5a b5 10 bd 94 cd 3c 3d 6a 26 41 3e
       -0.13195637 -0.0353292 0.046094492 0.1886231
0000c0 94 26 53 3d eb 46 cf bd ef 19 92 bd 97 54 82 bb
       0.051550463 -0.101209484 -0.07133853 -0.003977369
0000d0 21 41 18 bc 29 bb eb bc 1f 35 d0 3b 92 05 c3 3d
       -0.009292872 -0.028775768 0.006353989 0.09522547
0000e0 5b 40 ec bc bf 79 8a 3d 11 0b e7 bc 59 d3 83 bd
       -0.02883928 0.067615025 -0.028203519 -0.06436796
0000f0 8a 58 d4 bc 18 36 d1 bd 5b d4 f8 bd 27 2d 5f bd
       -0.025921125 -0.10215396 -0.121498786 -0.05448642
000100 28 e7 58 bd 56 85 c7 bd 99 6e 49 be d7 ad 08 be
       -0.052954823 -0.09742229 -0.19671096 -0.13347565
000110 15 10 b5 bd 57 f3 4d bc 43 64 79 3c 98 ec c8 bd
       -0.08840958 -0.012570224 0.015221658 -0.09810752
000120 0d 2f 62 bd 51 1b 60 bd 48 7c ac bc 1b 66 c0 3c
       -0.055220652 -0.05471355 -0.021055356 0.023486188
000130 97 9d 8d bd d2 9a 47 be ae 9c 1a 3b 55 58 2f bd
       -0.069148235 -0.19492653 0.0023591924 -0.04280885
000140 08 00 9e 3c 4e 3a 52 bc 10 89 a6 bd af 3c ae bd
       0.019287124 -0.012831284 -0.08131611 -0.08507668
000150 3a 00 19 be 80 8d e4 3d 3d 99 00 3d 6c 08 7e bd
       -0.14941493 0.111598015 0.03139614 -0.06201975
000160 45 95 93 bd 41 52 29 bd 9b ca ad 3d 4e 75 44 3d
       -0.07206205 -0.04133821 0.084859096 0.047963433
000170 4a a2 0f bd ac ed 3e bc b0 c8 1c 3c 6b 69 86 3d
       -0.03506688 -0.011653345 0.009569332 0.06563076
000180 98 70 aa bd 95 8e 54 3d d4 dc ad bc 8b 5c 3d 3d
       -0.08322257 0.05189379 -0.021223463 0.046230834
000190 dd 75 b5 bd 42 d5 89 bd bf 58 3f 3d 5f 35 ea 3d
       -0.08860371 -0.06730129 0.046715494 0.11435961
0001a0 24 a1 e6 3c 46 52 0a be 5f 19 25 bd 66 a7 fc 3c
       0.02815301 -0.13507947 -0.0403074 0.03084154
0001b0 18 a3 3b 3e bd b6 df 3d 86 42 16 be 30 8c c8 bd
       0.18323934 0.109235264 -0.14673814 -0.09792364
0001c0 c8 ac db bc dd 1b 3a 3e 21 bf da 3d 25 06 22 be
       -0.026815787 0.18174691 0.10680986 -0.15822656
0001d0 b7 7d 3b be 47 f0 59 3c 24 f8 03 3d e0 08 0c 3e
       -0.18309675 0.0133019155 0.032219067 0.1367526
0001e0 84 35 6e be a1 fd 87 bd 56 55 6a bd ad c8 12 3e
       -0.23262602 -0.06640173 -0.05721029 0.14334364
0001f0 79 ce fe 3d ca 5b 8a 3e 3a 4b a5 3d 23 c9 c1 bc
       0.12441725 0.27023154 0.08070989 -0.02365548
000200 5f b3 d3 bd 17 71 80 be f6 a8 35 3e 52 01 4a 3e
       -0.10336947 -0.2508628 0.17740235 0.19727066
000210 0f 7b 33 bd 6e ef 22 be f9 9b 81 be 14 6c d5 3d
       -0.04381853 -0.15911648 -0.2531431 0.10421005
000220 a8 6a 20 3e 9c c1 5c bd a7 bc 4f be c8 33 94 be
       0.15665686 -0.053895578 -0.20286809 -0.28945756
000230 1e 35 e8 3d 2f 84 75 3d be eb 8a bd f6 3a 9a bd
       0.11338256 0.059940513 -0.067832455 -0.07530777
000240 9c d5 88 be 66 cd 1e 3e fb 6f ce 3d 0a 43 c9 bd
       -0.2672547 0.15508041 0.10079952 -0.0982724
000250 53 e4 d9 bd a9 44 78 be 77 a3 d6 3d 8a cd 8a 3d
       -0.106392525 -0.24244942 0.10480397 0.06777485
000260 5b a6 a1 3d 0d c8 10 3d 81 c7 45 bd 6a a0 f4 bc
       0.07893058 0.035347033 -0.048285965 -0.029861648
000270 84 e2 8c 3c f4 4c 30 3d 2e 96 bc 3d d4 d3 1a be
       0.017197855 0.04304214 0.09208332 -0.15119869
000280 d2 99 95 bc 04 99 d6 bb 7e 92 be 3d 28 ac 0c 3d
       -0.018261824 -0.0065490026 0.09305285 0.03434387
000290 78 23 3d be 87 4a 41 3e 5c df b8 3b 33 92 f7 3c
       -0.18470562 0.18876086 0.005641861 0.03022108
0002a0 a0 da 35 bd 37 99 e3 bd 3e 68 fa 3c f7 f2 2c bd
       -0.04439795 -0.11113208 0.030567285 -0.042223897
0002b0 c9 4e d2 bd ec 8e da bd 99 14 50 bd 03 0a 53 bc
       -0.10268933 -0.106717914 -0.050800893 -0.012880805
0002c0 18 69 7e bd f2 17 c4 3c 51 54 9a 3e bd 77 4c 3e
       -0.062111944 0.0239372 0.30142453 0.19967552
0002d0 7a 22 6a bb a5 ea 84 bb 7f 51 9a 3e 3c 60 bb 3e
       -0.0035726116 -0.004056292 0.30140302 0.36596859
0002e0 ff 0c 72 bd f7 46 e6 3d b8 70 1c 3e 50 94 d4 3d
       -0.059094425 0.11244004 0.15277374 0.10379851
0002f0 03 e0 cf bd 98 7f 9a bd f1 72 ee 3d e5 8c 00 3e
       -0.10150149 -0.07543868 0.11643017 0.12553747
000300 c5 3e 0e be d7 8a 6b be e2 fa ef 3b 1b 12 13 be
       -0.13891132 -0.23002182 0.0073236087 -0.14362375
000310 92 87 c0 be 5e 25 8d be 3b 64 11 be 8f 53 1d be
       -0.37603432 -0.2756757 -0.14198391 -0.15363906
000320 67 c6 e2 bd 14 08 e1 bd 06 3f 33 3d 1d ce 1b 3c
       -0.110729985 -0.10987869 0.043761276 0.00950959
000330 d9 0d 99 bc 52 32 ad bd 6f 37 c0 bd aa 33 cc bd
       -0.01868336 -0.084568635 -0.09385573 -0.09970792
000340 33 e3 e5 bc d2 50 60 3d 98 33 e1 3c 28 8b 03 3d
       -0.028062439 0.054764576 0.027490422 0.03211513
000350 14 43 06 be c8 4c 9e 3c 0f c0 0d 3e a9 bf 29 be
       -0.13111526 0.019323722 0.13842796 -0.16577019
000360 89 61 1c 3c da 98 c3 3d ab 23 36 3e d0 be b1 3d
       0.009544739 0.095506385 0.17787044 0.08678973
000370 65 33 97 be 7f c5 d6 3d 9c 54 bb 3e 35 8f 48 3e
       -0.29531398 0.10486888 0.3658799 0.19585879
000380 71 d8 84 bd 43 0d b4 3d ef 64 18 be 6c 58 86 bd
       -0.064865954 0.08791592 -0.14882253 -0.06559834
000390 a6 a5 09 3e 80 a0 e2 bd 9f a8 21 3e 8e 6f 35 3e
       0.13442096 -0.11065769 0.1578698 0.17718336
0003a0 07 a9 96 3d d7 5b 27 be 5e cd a9 bc 20 87 be bc
       0.07356458 -0.16343628 -0.02072781 -0.023257792
0003b0 87 51 75 3e bf 8c d9 3d 9c 12 1c bb c6 1e fd 3d
       0.23956881 0.10622548 -0.0023814803 0.12359385
0003c0 2b 42 01 be 6f 00 ce bd 78 b7 e7 bc 8b c8 20 3e
       -0.12622897 -0.100586765 -0.028285727 0.15701501
0003d0 15 fe 0c 3e 15 3b ba bc 6b a6 78 be 9c a4 26 be
       0.137688 -0.02273325 -0.24282233 -0.16273731
0003e0 6c b6 9f 3c 6b a0 c3 bb da 01 a1 3d c3 39 13 be
       0.019496165 -0.005970051 0.07861681 -0.14377503
0003f0 9a 90 be b5 25 30 64 3b b9 2f 8c 3d 5a 94 59 3e
       -1.4198188e-06 0.0034818735 0.0684504 0.21247998

conv2.bias f4 [16]
000000 85 b6 ae bd 2d 92 cf be 82 03 81 3e cd d9 02 3f
       -0.085309066 -0.4054121 0.2519799 0.5111359
000010 59 69 c7 3d 3f 0d 0d be 1f 2a 1c 3f d7 4f bb bd
       0.0973689 -0.13774584 0.6100177 -0.091460876
000020 9c db 46 be 47 22 e0 be 22 ee 07 3f d6 4c 0c 3e
       -0.19419712 -0.43776152 0.53097737 0.13701186
000030 0c dc b8 be af 4c 3d bf de 4c 95 3e 1a 77 33 3d
       -0.36105382 -0.73945135 0.29160208 0.043814756

fc1.weight f4 [120, 400]
000000 df 79 03 be 32 11 4e bd aa c7 c3 3c 15 f8 95 3b
       -0.12839459 -0.050309367 0.023898918 0.004576693
000010 19 ae f8 bd cf d5 92 bd c2 0c 13 bd 9f e4 5b bd
       -0.121425815 -0.07169687 -0.03590084 -0.053684827
000020 bd 16 89 bc 93 46 89 bd 87 2f 81 bd d9 f3 4f bd
       -0.016734475 -0.06702914 -0.06307893 -0.05076966
000030 e9 c2 72 3b e4 2b bb 3b ab e7 b3 ba 95 a3 27 bc
       0.0037042445 0.0057120193 -0.0013725659 -0.010231872
000040 44 1e fc bc 51 49 34 bd a0 f9 45 bd 6f 9a 13 bd
       -0.03077615 -0.044015232 -0.048333764 -0.03603595
000050 4c 0e 85 3c dc 14 8a bd a1 52 fc bd f2 07 1a bd
       0.016242169 -0.0674226 -0.12320448 -0.037605233
000060 e7 9e 03 3d 19 ab b6 bd 82 d2 d3 bc 59 7d 3b bd
       0.032133963 -0.08919353 -0.025857214 -0.045773838
000070 62 2c b1 bd 5f 78 ac bd e9 5e a7 3b e2 ea 9d bb
       -0.086510435 -0.084213965 0.0051077497 -0.00481926
000080 0b cd 6d bd e0 d2 94 bd 2e 23 cb bd e2 79 1c bc
       -0.058056872 -0.07266784 -0.09918819 -0.0095505435
000090 9c 83 a0 bd bc 41 13 bc 6d 86 3e bc 69 85 78 bc
       -0.078376025 -0.00898784 -0.011628729 -0.015168526
0000a0 f2 d3 5d 3a 44 f7 d3 bc af 7f 6c bb f6 d4 91 3c
       0.0008462063 -0.025874741 -0.0036086848 0.017801743
0000b0 a9 10 2b bc 31 19 ac bd 8d 60 d8 bd 2d a7 3e bd
       -0.010440984 -0.084032424 -0.105652906 -0.04654615
0000c0 a3 e9 9d bd 75 73 7b bd 4e 4b ca bc 33 b7 9f 3b
       -0.07710578 -0.061389405 -0.024694111 0.004874134
0000d0 70 36 b6 bc 04 c1 41 3c 6c 76 3d bd 67 b5 a1 bd
       -0.022242755 0.011825804 -0.046255514 -0.07895928
0000e0 92 b8 70 bd 2e 02 9a 3c 53 8d 48 3d aa 1c 92 bd
       -0.05876977 0.018799867 0.048962902 -0.071343735
0000f0 3a 53 03 bd 90 45 b7 3b e7 a5 09 bd 0f 1a 53 bc
       -0.032061793 0.0055930093 -0.033605482 -0.012884631
000100 8b 72 16 3c 0f 5a 2b bd d1 e3 7c ba d3 d2 db bc
       0.009182583 -0.041833933 -0.00096469844 -0.026833927
000110 e9 a4 1d bd 56 fa 27 3b 80 96 79 bc 17 b8 e5 3c
       -0.03848735 0.002563139 -0.015233636 0.028041882
000120 f1 ac 8d bc 4b 25 4c bc 12 28 ee bb 68 f9 e5 3b
       -0.017294379 -0.012460063 -0.0072679603 0.007018257
000130 02 2c 5b 3c f3 4f 6e 3d 2a 96 68 3d 3a 06 a1 3d
       0.0133771915 0.058181714 0.056783833 0.07862516
000140 cc 43 9a 3c d8 b8 01 3c ed 12 1a bc a5 1b 6f bc
       0.018831156 0.007917605 -0.009403926 -0.014593993
000150 d6 cc b0 3d d8 ad 41 bd 37 02 58 bb 16 01 e5 3b
       0.08632819 -0.04728493 -0.0032960305 0.006988655
000160 01 56 30 3c 28 2b d1 3b 1f 98 ce bb 25 ce 14 3d
       0.010762692 0.0063833185 -0.0063047553 0.036329407
000170 00 38 e8 3b 38 79 36 3c 9a 80 7e 3d 81 76 11 3d
       0.007086754 0.011137299 0.062134363 0.035513405
000180 03 74 78 3d 53 7f 94 3d 1f e2 72 3d 73 28 7b 3c
       0.060657512 0.07250848 0.059297677 0.015329468
000190 ee 0e 86 3d 2d ab d2 ba 8a 19 b0 bc 78 7c 76 3d
       0.06545816 -0.0016072743 -0.021496553 0.060177296
0001a0 37 44 f8 3d cc 21 30 3d 7c 59 a9 bc d7 54 60 bd
       0.12122386 0.04300098 -0.020672552 -0.05476841
0001b0 87 6b 44 3a 19 f6 64 3c 33 dd 27 3d 24 94 a8 bd
       0.00074928295 0.01397469 0.040982436 -0.082313806
0001c0 fb d5 45 bd 67 fb 2b bd 1b a4 60 bc 3e 68 2d 3c
       -0.04829977 -0.041987803 -0.013711001 0.010583935
0001d0 ec a9 06 bd 68 a8 68 3d 56 e4 29 3d 9e 40 89 bd
       -0.032876894 0.05680123 0.041477524 -0.06701778
0001e0 4b 1b 19 bd 77 36 8b ba 98 91 28 3a 68 c6 29 bd
       -0.037379544 -0.001062109 0.00064303866 -0.04144898
0001f0 33 a9 95 bd d5 9d 83 bd ea ac a6 bd 36 43 cf bc
       -0.07307663 -0.064265884 -0.081384495 -0.025300603
000200 16 3c 91 bd ff 8d 1f be 09 d3 aa bd 3e eb 80 bd
       -0.070915386 -0.15581511 -0.08341033 -0.06294869
000210 99 27 dc bc 70 a3 c2 bc eb 1e 23 bd f1 bd ab bd
       -0.02687435 -0.023759574 -0.039824408 -0.08385838
000220 1a f5 95 bb f8 29 c6 bb 14 4e 0c bd 8e ba 58 bd
       -0.0045763375 -0.0060474835 -0.03425415 -0.052912287
000230 8e 9c b5 bc fb ab 02 bd 18 67 cb 3c 93 61 b0 bc
       -0.022169378 -0.031902295 0.024829432 -0.021530902
000240 2a a3 8f 3a d4 08 a2 bd cd 6a 91 bc 99 71 b9 3c
       0.0010958661 -0.0791184 -0.017751122 0.022637175
000250 27 2e 48 ba 07 9c 40 3d 6c b5 35 bd 33 fd 76 bd
       -0.0007636272 0.0470238 -0.04436247 -0.060300063
000260 f2 85 8b bd 2c eb 07 3c a8 e2 9e bd 15 6a 9b 3c
       -0.068126574 0.008295815 -0.07758075 0.018971482
000270 07 4b 52 3c 29 31 30 39 bf eb 50 3c 6c ce be bb
       0.012835271 0.00016802982 0.012751519 -0.0058229472
000280 b2 d7 2b bd fd bb 82 3c b4 ec 73 3d 58 c0 87 bc
       -0.04195375 0.01595878 0.05955191 -0.016571209
000290 49 63 18 3d 18 3f 08 bd 2f db f6 3c d0 50 9a 3d
       0.03720406 -0.033263296 0.030133812 0.07534945
0002a0 0f a5 43 3c 80 78 17 bd 14 9d a4 3c 73 8c 10 bd
       0.0119412085 -0.036980152 0.020094432 -0.035290193
0002b0 b6 2e 1a 3d 8c d2 05 3d 16 40 bb bd 29 a4 2c 3c
       0.037642203 0.032671496 -0.09143083 0.010537186
0002c0 24 46 35 3c f4 b3 fc 3b 77 70 f9 3b 8d ba de 3c
       0.011064086 0.007711882 0.007612284 0.027188564
0002d0 f7 3e 7d 3c 11 5a 22 3d 89 3f 84 3c c0 c7 7c 3d
       0.0154569065 0.039636675 0.016143577 0.061713934
0002e0 44 79 c8 bc c3 a4 9f bd 18 1a 43 bd a1 69 99 3b
       -0.024471886 -0.07795098 -0.047632307 0.0046817814
0002f0 53 2d 0c 3d 22 07 f8 3c 8b 13 4d bb 90 f9 6f 3c
       0.034222912 0.030276839 -0.0031292166 0.014646903
000300 be 74 10 bd 16 03 be 3c 1e ef 0f bb 59 b3 3a 3b
       -0.035267584 0.02319483 -0.0021962593 0.0028488247
000310 76 4a 27 bd 88 37 97 bd 97 67 80 bd ae dd 6a bd
       -0.040842496 -0.073836386 -0.06269758 -0.057340316
000320 5d a6 3d bd 68 b6 d7 bc 71 a6 3a bc 8a 57 76 bb
       -0.046301235 -0.026332095 -0.011392222 -0.0037588798
000330 c2 74 e9 ba e1 ad f7 bc 53 a9 8e bd ab 6a 30 bd
       -0.0017811286 -0.03023428 -0.0696589 -0.043070477
000340 4e ca af bd 52 47 a0 3a 71 e7 90 3d a4 58 be bb
       -0.085835084 0.0012228286 0.07075394 -0.0058089066
000350 66 4f ad bc d4 e3 0b 3d e5 ee 05 3d f6 0c 5b 3d
       -0.021156024 0.03415282 0.03269853 0.053479157
000360 d5 fa e5 3c bf bf 18 3d 97 89 c4 bc 7f 4b 9e 3c
       0.028073708 0.03729224 -0.02399139 0.019323109
000370 68 c5 0b ba 0d b6 87 bc 40 41 a3 bc f3 fb 2f 3d
       -0.0005331845 -0.0165663 -0.019928575 0.042964887
000380 ff 27 bd 3d 4a b7 52 bd 61 8d b5 3b 50 e9 d2 3c
       0.09236144 -0.05144433 0.0055405353 0.025746018
000390 42 b4 dc 3c 58 3f 89 bc 3c b4 da 3b 8f 08 3a bd
       0.026941422 -0.016753837 0.0066743176 -0.04541832
0003a0 08 6a b0 bc b7 e8 4c 3c a1 f1 72 bc a8 36 3b bd
       -0.021534935 0.012506655 -0.014828117 -0.04570642
0003b0 d3 0b 42 3c be 97 a6 bc 92 76 03 3d fc 8a 22 bc
       0.011843639 -0.020336028 0.0320955 -0.009920832
0003c0 7a a1 ed bc d6 f3 83 bc 14 1c 8e ba 21 1d b0 bd
       -0.029007662 -0.016107481 -0.0010842108 -0.08599306
0003d0 00 0b af bd c3 04 99 bc 8f 1a 68 bd 95 74 ca bd
       -0.0854702 -0.018679028 -0.056665953 -0.098855175
0003e0 fc da 45 bc 7e 04 03 bd df c2 11 be e8 9d 65 bd
       -0.012076136 -0.031986706 -0.14234494 -0.056058794
0003f0 f7 5b 11 3d d2 3a 5d 3d 91 58 3a bc 04 76 82 bd
       0.035488095 0.054011174 -0.011373655 -0.06370166

fc1.bias f4 [120]
000000 cd e7 29 3e 0e 15 10 3e 71 c1 af 3c 84 5d d9 bd
       0.16592331 0.14070532 0.021454545 -0.1061354
000010 6f 32 33 3c 89 27 f2 bc 43 47 9e bb d5 10 e3 3d
       0.010937317 -0.029559867 -0.0048302724 0.11087195
000020 20 f5 f3 3b 36 55 09 3e 59 ff 25 3e 57 6e 62 3d
       0.0074449927 0.13411412 0.16210689 0.05528101
000030 14 80 fe bb b3 47 37 3d 4b 06 e3 3d 49 e3 a4 3c
       -0.007766733 0.044746112 0.11085185 0.02012791
000040 5b d4 ce bc b3 6a 46 bd 00 45 ad 3d 85 2e e2 3d
       -0.025247743 -0.0484416 0.08460426 0.11044029
000050 4e 13 aa 39 dd 2d 9e bd 20 58 32 3e 07 c0 49 3e
       0.0003243931 -0.077235915 0.1741643 0.19702159
000060 28 eb d5 3d be d9 28 bd 89 a9 13 bd 54 22 c4 bd
       0.10445243 -0.04122328 -0.036050353 -0.0957686
000070 51 aa 3c bc 45 00 cd 3d 78 df 20 3d 73 cd 39 bd
       -0.011515216 0.10009817 0.039275616 -0.045361947
000080 c0 2e be 3c 7c db de bc de a7 50 bc 19 25 49 bd
       0.023215652 -0.027204268 -0.012735335 -0.049107645
000090 61 b2 7a 3c 3b 65 55 bc 89 b2 b1 bd c7 c0 88 bc
       0.015301318 -0.0130246235 -0.08676631 -0.016693486
0000a0 58 e2 91 3d 85 b2 4f bb b3 a6 2b bc a4 68 88 3d
       0.0712325 -0.00316921 -0.010476756 0.066605836
0000b0 4f a2 e0 bd 6a 6d 12 3d 3a 05 13 3d 76 fd ed 3d
       -0.10968458 0.035748877 0.035893656 0.116206095
0000c0 be 1f 22 3d ed 0f d2 3d 5f 7c 3f 3e 5a e6 69 3d
       0.039581053 0.10256944 0.18699788 0.057104446
0000d0 55 84 5f 3c 29 1d 45 bd f2 71 82 bd 6e 83 24 3e
       0.01364239 -0.048123512 -0.063693896 0.16065761
0000e0 a4 23 6e bb 37 c7 49 bd 87 8d bd bc 58 84 77 3d
       -0.0036337161 -0.04926225 -0.023138775 0.060428947
0000f0 80 ff 77 be f4 98 dd 3d c7 f8 2f 3e 19 3a e9 3d
       -0.2421856 0.10820189 0.17184745 0.113880344
000100 b8 a8 11 3e cd 2a 88 3d 2a fd b4 bc 13 a8 45 3e
       0.14224517 0.066487886 -0.022093374 0.19302396
000110 8b 26 85 3d 59 14 ce bd ab 8d 60 bb 5d fb 30 3d
       0.06501492 -0.10062475 -0.0034264128 0.04320847
000120 a6 44 e5 3c db 41 44 be 7d 78 36 bd 8b 59 00 3e
       0.027986836 -0.19165747 -0.0445485 0.12534158
000130 ff 7d 8f 3d b3 06 f7 3d e5 a4 4d 3d af 3b 1f 3e
       0.07006454 0.12061825 0.050206084 0.15550111
000140 15 61 f2 3b 8a ee 84 bd 1e 7a de 3d 5d 9d 82 3b
       0.007396827 -0.0649081 0.10863136 0.0039860443
000150 80 38 69 bd 89 ca 09 be ba 1d ef bd fc 0f f8 bd
       -0.05693865 -0.13456167 -0.11675592 -0.12112424
000160 28 26 8d bc 2b 97 eb 3c a9 02 02 3d c6 9a 6c bc
       -0.017230108 0.028758606 0.03174082 -0.014441198
000170 78 a0 c4 3d f2 48 86 3c 62 ca 29 3b 4c 98 a2 3d
       0.096009195 0.016392205 0.0025907983 0.079392046
000180 29 79 59 bd c5 53 bf 3d 1f 66 15 3e 31 e8 dc 3d
       -0.053094063 0.0934215 0.14589737 0.107864745
000190 fa 2f 4f 3d e1 03 04 bc 7e b5 47 bc 95 4f 13 3c
       0.050582863 -0.008057565 -0.012189267 0.008991142
0001a0 27 bc 04 3d 3a 7e 4a 3c b6 55 a8 3d 5a 59 cf 3c
       0.032406 0.012359196 0.08219473 0.02531116
0001b0 c4 43 49 bd ca 2b 13 3e 42 22 ba 3c f2 b1 4d bd
       -0.049136892 0.14372173 0.022721414 -0.05021853
0001c0 91 a6 d3 3d 14 df 01 3e d2 ed 0d bc 36 c7 39 bd
       0.103345044 0.12682754 -0.008662658 -0.045355998
0001d0 80 96 bf 3d 12 d1 90 3d 3e 8c 22 3d 7c 5a 4a bd
       0.093548775 0.07071127 0.039684527 -0.0494027

fc2.weight f4 [84, 120]
000000 e3 9d 6e 3c 9f 03 a9 3b ee c7 93 3c d1 28 f8 bd
       0.01456401 0.0051579024 0.01803967 -0.1211716
000010 55 c2 94 bd 66 7a 79 bd be 1e 20 3d 47 42 7a 3d
       -0.072636284 -0.060907744 0.039091818 0.061098363
000020 3d 42 b4 3d b0 cb b1 3d 51 0f 41 3d 66 88 b9 bc
       0.088016964 0.086814284 0.047133747 -0.022648048
000030 1e 05 b2 3d f7 c4 0e bd 1f 5a 87 bc c8 ee 32 3d
       0.08692382 -0.03485581 -0.016522465 0.04368475
000040 17 2b de bd 55 8c 77 3d 2d ca fd 3d 30 71 89 bd
       -0.108480625 0.060436565 0.123920776 -0.06711042
000050 76 fb 93 bd b3 a4 70 3c 90 be c9 3d 2d e1 f5 bc
       -0.07225697 0.014687705 0.098508 -0.030014599
000060 6c a6 17 bd 8c 63 61 3c 92 2a 24 bc 6b 72 18 be
       -0.037023947 0.013756644 -0.010019915 -0.14887397
000070 ad 9b 24 3c 6a 69 00 bd 61 53 5f 3d 5e 97 56 bd
       0.010046882 -0.03135053 0.054522876 -0.05239045
000080 e4 1b 39 bc ab 06 91 3d 00 91 e1 bc 9c 09 8a bb
       -0.011298154 0.0708135 -0.027534962 -0.0042125713
000090 3a 7e 72 3d 6e 6d cb 3c 7f 31 9a bd 8e 15 a0 bd
       0.05920241 0.024832454 -0.07528972 -0.07816611
0000a0 0d ef 96 3c 2b bb b9 bc 42 ce 74 3d 4c 50 d3 3d
       0.018424535 -0.022672256 0.059767015 0.1031805
0000b0 fa ef 4f bd fc 42 d1 bc 77 18 8e 3c d6 22 41 3d
       -0.05076597 -0.025544636 0.01734565 0.047152363
0000c0 08 ec b5 bd 02 3a 03 3e b2 9d 3c 3c a6 e9 2b bd
       -0.0888291 0.12815097 0.011512207 -0.04197087
0000d0 b1 7d b5 bd b4 7d 12 bd 77 84 07 bd 74 fb f0 bb
       -0.08861864 -0.03576441 -0.033085313 -0.0073541943
0000e0 ba 09 5d 3c cd aa 21 bd 90 76 9d bc 0e e1 d2 bc
       0.0134910885 -0.03946953 -0.019221574 -0.02574208
0000f0 22 2f d5 bd 59 13 2a bd c7 f1 76 bd 15 98 9e 3d
       -0.104093805 -0.041522358 -0.06028917 0.07743851
000100 58 ff e7 3c d0 3c 13 bd 75 2f af 3d 5c 14 02 3d
       0.02832 -0.035946667 0.085539736 0.031757697
000110 33 ce 0c 3e 53 9b 9a bc 20 da 86 3d 40 74 1a be
       0.13750534 -0.018872892 0.06584573 -0.15083408
000120 c3 96 21 bd 6e 72 3d bd 1e 85 4d 3c 3d 6b 9a 3d
       -0.03945042 -0.046251707 0.012543945 0.07539985
000130 b9 6e b5 3d 91 bb 34 bd 4b e5 9c 3c 11 e7 63 bd
       0.08859009 -0.04412419 0.019152304 -0.055640284
000140 59 3b 03 3c 8e bc f4 bc 21 16 ed 3d 51 67 44 bd
       0.008009755 -0.029875066 0.115764864 -0.047950093
000150 01 b1 c9 bc 23 a0 0b bd 09 60 a0 bd 5c 95 ad bc
       -0.024620535 -0.034088265 -0.07830817 -0.021189384
000160 52 62 2e 3d 97 66 95 3d 30 dc 64 3c e7 70 9d 3d
       0.042574234 0.07294958 0.013968512 0.0768755
000170 3a c1 8c bc 85 b6 df bc 26 ab 37 3c b7 34 ca bd
       -0.017181981 -0.027308712 0.011210239 -0.09873336
000180 47 b3 bd bd 85 a9 67 bd cc 04 b7 3d e2 e6 b7 bb
       -0.0926271 -0.05655815 0.08936462 -0.00561224
000190 5c 28 75 3d 6b 5d b5 3d f3 0c 3f 3d 7c 7c a9 bd
       0.059852943 0.08855709 0.04664321 -0.08275697
0001a0 d3 13 d7 ba 9f 9c de bd 73 81 73 bd 9b 6a 6c 3d
       -0.0016409106 -0.10869717 -0.059449624 0.057718854
0001b0 2a 4b 40 3d 6c 25 90 3c 10 fc 35 3b f5 8e 9b 3d
       0.046946682 0.01759597 0.002776865 0.07595626
0001c0 6c 50 c3 3c f1 df ae 3d 6e ae 89 bc 3a d1 fb 3c
       0.02384206 0.08538807 -0.016806807 0.030739415
0001d0 01 be c2 3d 42 90 00 bd 5b f8 14 bd d8 d0 4a bd
       0.095088966 -0.031387575 -0.036369663 -0.049515575
0001e0 a7 59 09 3e 28 e2 09 3e 6d fb 1b bd 85 4d a3 bd
       0.13413106 0.13465178 -0.038081575 -0.0797377
0001f0 33 30 19 3e 8a b8 b5 3b 47 a0 9c bd 80 c2 fd bc
       0.14959793 0.0055456804 -0.07647758 -0.030976534
000200 4c 82 a4 bc 8f 74 d9 bb 5b dc 12 3e ea c7 05 3e
       -0.020081662 -0.0066362093 0.14341871 0.13064542
000210 8e 32 a1 3b 60 5b 53 3d 06 a9 5b bd 51 6b a3 bd
       0.0049193567 0.051600814 -0.05362799 -0.07979453
000220 d3 1e c6 bc a3 74 8b bd 09 74 21 3d 48 6f 83 bc
       -0.02418462 -0.06809356 0.0394173 -0.016044274
000230 d5 cc ee 3c fa 45 99 3c e4 77 00 bd 9e a5 84 bd
       0.029150406 0.018710125 -0.031364337 -0.064769015
000240 36 42 c8 3d ff 60 68 3d 2f bc 80 3d e7 c9 af bd
       0.09778254 0.056733128 0.06285893 -0.08583432
000250 85 4f 76 bd 89 54 c5 bc 00 d7 00 3d 49 ed 0b 3d
       -0.06013443 -0.024088161 0.03145504 0.03416184
000260 f6 48 ad 3c 4d 6f 20 bd 70 76 e3 bc ec 81 09 3c
       0.021152955 -0.039168645 -0.027766436 0.008392792
000270 55 6a 80 3d de e8 a7 3c 02 1d 6f 3c 1d a1 85 bd
       0.06270281 0.020496782 0.014594318 -0.065248705
000280 86 fb 37 bd 11 0a af bd 9a 0c 1e bd a9 1e da bd
       -0.044917606 -0.08546842 -0.038586237 -0.10650379
000290 f0 af 09 be 03 32 99 3d 13 a2 de 3c c4 6d 99 3d
       -0.13446021 0.07480242 0.027176892 0.07491639
0002a0 0f ba 82 3d 58 3f d7 3c e4 57 61 bd d5 0b dc bd
       0.06383144 0.026275322 -0.05501546 -0.10744444
0002b0 fb c9 32 3d be f6 8c 3d bb 7d e5 bc 3f 13 9f 3d
       0.043649655 0.06883 -0.028014055 0.07767343
0002c0 ee bb d6 3c 48 c6 4a 3d 47 92 62 3d d6 d1 5e bd
       0.026212659 0.049505502 0.055315282 -0.054399334
0002d0 57 28 1d be df 6a 8a 3d a8 0a e6 3d c0 2f f0 bd
       -0.1534742 0.06758665 0.11232501 -0.117278576
0002e0 b9 37 89 3d ec 7f 66 3d 66 4d 80 bd a4 18 a7 3c
       0.067000814 0.05627434 -0.062647626 0.020397492
0002f0 bb ce c2 3d 1a 75 71 bd 68 98 7e bc 69 2c 61 bd
       0.09512087 -0.058949567 -0.015539266 -0.054973993
000300 a5 1e 1b bd 2d e5 83 bd cc 10 d2 bc db 57 5e 3d
       -0.03787102 -0.06440196 -0.025642775 0.054283004
000310 e1 d5 34 3d bd 12 58 3c 4b 12 8c 3d 0d c6 5c 3d
       0.044149283 0.013188061 0.068394266 0.053899813
000320 52 6d 4f 3d 52 f8 c1 bc 41 27 ee 3d 67 87 77 bd
       0.050641365 -0.023677979 0.11628581 -0.060431864
000330 7c 36 a1 3d 73 cf a1 bc 4f de 24 bd e6 5a d1 bd
       0.0787172 -0.01975224 -0.040251072 -0.102224156
000340 3c 85 96 3a de 3a 73 3c 94 1f 69 bd 92 30 98 bc
       0.0011483799 0.014845578 -0.05691488 -0.018577848
000350 8e 65 90 3d 22 13 18 3d c8 01 e2 bd 3f d9 82 3d
       0.0705062 0.03712762 -0.11035496 0.06389093
000360 c5 3b 4c 3d 5d b6 89 3d 31 f0 98 3d 9b 56 8d 3d
       0.04986169 0.06724236 0.07467688 0.06901284
000370 72 b5 8b bb 7f b9 52 bd 46 44 f7 3d 62 ea 40 bd
       -0.0042635733 -0.051446434 0.12073569 -0.047098525
000380 17 b3 e0 bd de 63 46 3c 28 28 3e 3e ce ca 48 3c
       -0.10971659 0.012108771 0.18570006 0.012255384
000390 b4 33 34 bd cf 0e cf 3b 4b 37 af bd 5d 1a b2 bd
       -0.04399462 0.006318904 -0.08555468 -0.08696435
0003a0 8e 77 04 3d 96 14 ad 3d db a6 3c be 50 52 be 3d
       0.03234058 0.08451192 -0.18423025 0.092930436
0003b0 c4 03 10 3d 2d bb e5 3a 8f 4d c1 bc 20 29 89 3d
       0.03515984 0.0017527096 -0.023596553 0.06697297
0003c0 dd 24 c9 bd a9 df 5b 3d a0 dd 86 3d 3d d9 f2 bc
       -0.09821484 0.053680096 0.0658524 -0.029644603
0003d0 7e 23 f3 3d 27 cc f7 bc b4 5c 86 bd 61 a2 2f 3e
       0.11872004 -0.030248715 -0.065606505 0.17151786
0003e0 4d 98 16 bd 16 37 03 3c db 86 22 3d 02 6a 4e bc
       -0.03676634 0.008008739 0.03967939 -0.012598516
0003f0 76 57 01 bd a5 2b 40 bd d5 9d c6 3b bb b6 80 3d
       -0.03157755 -0.046916623 0.0060612955 0.06284853

fc2.bias f4 [84]
000000 87 38 34 3d 14 cf ab 3e d2 ae ac 3d cf 11 6a 3e
       0.04399922 0.33556426 0.08431782 0.22858356
000010 00 30 b7 3e 87 2f 2e bd 00 a6 87 3c 9b fb db 3d
       0.3577881 -0.042525794 0.016558647 0.10741349
000020 c9 82 38 3d 02 33 8a 3d f9 6a d7 bc f7 ed a0 3d
       0.0450466 0.0674801 -0.026296126 0.07857888
000030 da 5e 26 3e 32 b7 0b 3e 83 93 e7 bc 6f c2 37 bc
       0.1624712 0.13644102 -0.028268581 -0.01121579
000040 cc 4d 16 be c2 1b 05 be 2b 49 1a 3d 12 14 bc bd
       -0.14678115 -0.1299887 0.037667435 -0.091835156
000050 87 07 bf bd c0 89 13 3e cd 86 d1 3c 68 5a b2 bd
       -0.093276076 0.14408016 0.025576973 -0.0870865
000060 98 5b ec bb 7a 0c 9e 3e ac a2 d5 bb 49 8d c2 bd
       -0.0072130673 0.30868894 -0.006519636 -0.09499604
000070 09 74 bf 3b 8f 92 d9 bc 90 c4 0e 3e ab 29 92 3c
       0.00584269 -0.026559142 0.1394217 0.017842134
000080 fd db ab 3d 7e fe 57 3e 78 b4 8d 3d 9d 3b 8f 3d
       0.08391569 0.21093175 0.06919187 0.06993792
000090 74 3d c4 3d 4b f2 1f be d4 4b 33 3b 68 f5 d5 3e
       0.09582034 -0.15619771 0.002735843 0.41788793
0000a0 02 9d 23 bd 0a bb dd 3d 15 8c 72 3c fa f6 98 bd
       -0.039944656 0.108266905 0.014803906 -0.07468982
0000b0 f0 57 27 3e ab e7 a5 bd d9 48 6e 3e ea 61 7a 3b
       0.16342139 -0.08100828 0.23269977 0.0038205334
0000c0 b6 97 48 ba f8 cb fb 3d 19 f1 44 3c 3d 4a 61 3e
       -0.0007652001 0.12294763 0.012020373 0.22000976
0000d0 e4 6b b2 bc 1e 74 de 3c e8 67 95 bd 44 e0 72 bc
       -0.021779962 0.027154978 -0.07295209 -0.014823977
0000e0 16 c4 e3 bd f1 3b 0a 3e 2e f0 15 be f2 30 ef bc
       -0.11121385 0.13499428 -0.14642403 -0.029198144
0000f0 d2 f8 3e 3e eb b9 7d bd 80 7a a3 bd 7f 9c 50 3e
       0.18649605 -0.061944883 -0.079823494 0.20372199
000100 87 b8 a4 3e 43 e7 99 3c f8 2b 10 bd a7 5f 95 bc
       0.32172033 0.018787032 -0.035198182 -0.018234087
000110 76 1f a6 3c 74 98 d7 bc 7e 4d 7c 3d 23 cf f6 3d
       0.020278674 -0.026317813 0.06159734 0.12051227
000120 b5 58 84 bd 5e 83 3a 3e f2 7f 9b 3d 96 d3 c7 3c
       -0.06462232 0.18214175 0.07592763 0.024392884
000130 e4 6a ac bd 8c 9d b8 bc ae 4d 2d 3d a3 34 5f 3c
       -0.08418825 -0.022536062 0.04231041 0.013623389
000140 5d 61 3d be d8 10 cf 3c b4 d2 76 3e 85 2b 25 bd
       -0.18494172 0.025276586 0.24103814 -0.040324707

fc3.weight f4 [10, 84]
000000 98 b5 12 bd 98 2c 35 3e e6 8a 07 be b7 eb 05 3e
       -0.035817713 0.17692792 -0.1323658 0.130782
000010 86 96 ff bd e4 16 97 3d 1e 2a b5 3d 67 86 6e bd
       -0.12479882 0.07377413 0.08845924 -0.058233645
000020 c8 95 3c 3c 0f 97 ae bc 6a 3d e2 bd 65 88 df 39
       0.01151032 -0.021312265 -0.1104687 0.00042635496
000030 88 be d1 3d 56 b2 09 be f7 bd bf 3c 4c ce c2 bd
       0.10241419 -0.13446936 0.023406012 -0.09512004
000040 1a 0c 7d bd 73 bd 19 3e a5 e8 c7 bd 78 a9 31 3e
       -0.06177912 0.15013675 -0.0976117 0.17349803
000050 d9 b5 98 3d 4f fd 7b be 8f 10 44 be 2e b2 0b 3e
       0.0745656 -0.24608348 -0.19146942 0.13642189
000060 15 01 29 be a4 50 92 be df 7c 99 3d 7e 16 cf 3d
       -0.16504319 -0.2857715 0.074945204 0.10111712
000070 45 54 25 3d 80 ff 2f 3e 2e db 29 bc ca 8c 7c bd
       0.04036357 0.1718731 -0.010367198 -0.061657704
000080 ba de ba 3c 68 7f d6 3c 0e 15 fd 3d 3e 0a 40 3e
       0.022811282 0.026183799 0.123575315 0.18753907
000090 d7 14 6d 3d 8a 91 ac 3d d6 be 11 be 1b cd d1 3e
       0.057881203 0.08426197 -0.14232954 0.40976796
0000a0 e6 76 cb 3d 18 fe e1 3d ab 1c ab bd de 25 23 3d
       0.099347875 0.11034793 -0.08355077 0.039831035
0000b0 23 28 65 3d 0d b1 cc 3d 54 93 ee 3d f5 ce f0 bd
       0.05594648 0.09994707 0.11649194 -0.11758224
0000c0 2f ba 0e be 8a 28 1f be 3a b6 26 be 12 b3 6c 3e
       -0.13938211 -0.15542808 -0.16280451 0.23115185
0000d0 0f 45 42 bd b9 22 70 3e 3f ce a0 bd 94 f4 62 3e
       -0.04742914 0.23450746 -0.07851838 0.22163612
0000e0 14 47 8a 3e 58 9f 26 3e 37 c6 fb 3d 02 a9 c5 3d
       0.27007353 0.16271722 0.12293666 0.09651376
0000f0 db 92 69 be f8 b8 e8 3d af 3e 17 bd 87 f1 32 3d
       -0.22809927 0.11363405 -0.036925014 0.04368737
000100 e1 7f b2 3d 40 f8 26 be ce e2 e4 bd b0 a5 21 bd
       0.08715797 -0.16305637 -0.11176072 -0.039464653
000110 90 87 65 3d 41 0a a1 bd 42 50 d9 bd 55 e5 62 be
       0.056037486 -0.07863284 -0.10611011 -0.22157796
000120 f1 c7 bd 3d 94 bb 98 3d 2f 62 f8 bd 06 ce ea bd
       0.092666514 0.07457653 -0.12128102 -0.11465077
000130 12 e5 a2 3c ac ee aa 3b a0 70 8b be 0e e7 a0 bd
       0.01988462 0.00521644 -0.27234364 -0.0785657
000140 80 a6 19 3e b7 c8 a7 3d dc ad aa 3d dc 72 f9 3c
       0.15004921 0.0819258 0.08333942 0.030450277
000150 42 fd 0a be e5 d5 7d be 19 38 09 3e de e7 a3 bd
       -0.13573173 -0.24788626 0.13400306 -0.080032095
000160 f6 ec ba be eb 83 f8 3d 34 6c 05 3e 6e 7e 33 3c
       -0.36508912 0.12134536 0.13029557 0.010955436
000170 ae a0 c3 bc 6c 68 38 3e 29 17 ee 3c f8 92 9b 3d
       -0.023880329 0.18008584 0.029063778 0.075963914
000180 4d bb 91 3d 9e dd 29 be c6 9d a8 3c 02 f8 94 3d
       0.07115803 -0.16588446 0.020583045 0.07273866
000190 df b3 2d 3e 46 cd 15 bd 32 4a 1f 3d fe 64 90 bd
       0.16963147 -0.036572717 0.038889118 -0.07050513
0001a0 a2 c0 22 3d 44 ff 9e 3d 5f 16 9a 3d 05 4e 9f bd
       0.03973449 0.07763532 0.07523798 -0.07778553
0001b0 d0 74 82 3e d8 c7 09 be 02 83 fc bc 0c 55 97 3d
       0.25479746 -0.1345514 -0.030824188 0.07389268
0001c0 62 73 aa bd 00 13 dc bc 5d 33 a8 be 27 6d 44 ba
       -0.08322789 -0.026864529 -0.32851687 -0.00074930716
0001d0 e5 04 95 be 20 1f 77 bd a7 db 47 3e 04 8e 6f 3d
       -0.29105297 -0.060332417 0.19517384 0.058485046
0001e0 47 a9 e3 3d 9f 74 a6 3e a7 de c7 3d 59 9e 48 be
       0.111162715 0.3251085 0.097592644 -0.19591655
0001f0 98 04 63 bd 53 5b 5a 3d c0 8c 91 bd c3 f5 80 bd
       -0.055424303 0.05330975 -0.07106924 -0.06296875
000200 88 47 58 be 7e 9e 7f 3d 1d 09 1c 3e ed 91 53 3d
       -0.21121037 0.06240701 0.15237851 0.051652838
000210 ed 96 17 3e 23 9b 46 be 7e 80 f5 bd 97 e3 93 be
       0.14803667 -0.19395117 -0.119873986 -0.28884575
000220 1d 54 0f 3e b5 cb f7 3a 4f 79 d2 3d 4f 74 55 bd
       0.1399693 0.0018905314 0.10277044 -0.052112874
000230 e6 7c ac 3b fe db d0 3e 98 68 ef 3e 11 7c 8a bd
       0.0052639125 0.4079284 0.46759486 -0.06761945
000240 f4 1c 86 3d 20 c5 72 bd cf c6 19 bd 3e 14 46 be
       0.06548491 -0.059270024 -0.037543114 -0.1934366
000250 3b 58 62 be db 89 23 be f6 d0 4a 3d 04 23 6c 3d
       -0.2210397 -0.15970556 0.049515687 0.05765058
000260 90 1c 33 3e 9f 17 42 3d 92 85 af 3c f9 ec a8 bd
       0.17491364 0.047385808 0.021425996 -0.08248324
000270 4a b5 37 bd 50 27 bd bb 49 61 85 bd 14 f2 72 3d
       -0.044850625 -0.0057725087 -0.06512696 0.059312895
000280 12 9e a5 bd 67 0d 5c 3d 13 1d 75 bc ba 41 d3 bc
       -0.0808679 0.05372372 -0.014960545 -0.025788177
000290 af bf 4a bd 90 13 8e bd c6 95 cc 3d 86 82 67 3d
       -0.04949921 -0.06937325 0.099895045 0.05652096
0002a0 b3 b1 ee bd fb d5 09 bc 14 8b 11 be e2 7d 65 3d
       -0.11654987 -0.008412833 -0.1421321 0.056028254
0002b0 47 cd a9 3d d6 e4 dd 3c 0d 73 65 bd ea 89 b6 bd
       0.08291107 0.027086657 -0.056017924 -0.08913024
0002c0 63 1d 92 3d bd 3c ff bd fb 30 04 3c e8 ad 6c 3d
       0.07134511 -0.12462757 0.0080683185 0.057783037
0002d0 9a b7 fd bd af 55 25 3d bc 12 4b 3c 11 3b 89 3d
       -0.12388535 0.040364917 0.012394603 0.06700719
0002e0 0e 89 99 bd bf 24 4a 3c d0 dc eb bd a5 7c 73 be
       -0.07496844 0.0123378625 -0.11516726 -0.23778017
0002f0 c3 ec a4 bd 97 99 76 bd 37 a4 bb bd f2 55 c0 3d
       -0.08052971 -0.06020507 -0.09162181 0.09391393
000300 d5 89 2a be 04 67 56 3e 10 35 ca 3d c9 17 b3 bd
       -0.16654141 0.20937735 0.09873402 -0.08744771
000310 de cb 8c 3e 58 99 18 3e b1 70 a6 bc 71 05 35 bb
       0.27499288 0.14902246 -0.020317407 -0.0027621652
000320 91 98 ad bc e4 a2 9b bb f4 7f 2a be e6 37 3f bd
       -0.021190913 -0.0047496427 -0.16650373 -0.04668417
000330 dc 13 08 be bb 4e 1f 3e 7d 9c 0f 3d ee d3 82 3e
       -0.13288826 0.15557377 0.03506135 0.25552315
000340 22 9a f8 bd bb f8 c6 bc 9a 4d b0 3d 3f f5 d8 3c
       -0.121387735 -0.024288526 0.08608551 0.02648413
000350 f5 02 50 3e 0b 7a e2 bd 8b 5f 25 be 88 e5 a3 3d
       0.20313628 -0.11058434 -0.16149728 0.08002764
000360 ad d1 01 3d 8c c4 ee 3d 05 aa a1 3c f3 85 4b 3e
       0.031694103 0.11658582 0.019734392 0.19875316
000370 24 8a b6 3d 5c f4 e5 3d 5b ea a8 3d bc 36 d1 3c
       0.08913067 0.112282485 0.08247825 0.025538795
000380 ee a5 e4 bd 09 84 41 be 2a 95 d3 3c a7 ce 16 3d
       -0.11164461 -0.18898024 0.025827963 0.036818173
000390 46 c8 16 3e 89 0a 76 bd 62 54 9c 3c 4e fd 58 3e
       0.14724836 -0.06006864 0.019083206 0.21190378
0003a0 54 ee a1 3e fc 7e e8 3d 48 71 34 be 52 3a a2 bd
       0.31627142 0.11352345 -0.17621338 -0.0792128
0003b0 66 aa 4f bd 3b f7 5a 3d 7b 06 af 3d 43 39 26 bc
       -0.050699614 0.053458434 0.08546158 -0.010145488
0003c0 86 c3 1c 3d cd b7 c7 bd 48 05 63 bc 87 58 d6 bd
       0.038272403 -0.09751854 -0.01385624 -0.10466104
0003d0 4e 19 2e 3e 11 94 1c 3d a8 7f d1 3d c8 77 38 bd
       0.1700184 0.038227145 0.102294266 -0.045036107
0003e0 b5 b6 65 bc 6d 4e 2d 3b 0e c3 10 be 49 02 9b 3d
       -0.0140206115 0.002644445 -0.14136907 0.07568795
0003f0 51 11 9b 3d 74 2a 0f be a5 af 20 3e 3b 68 a5 bd
       0.07571662 -0.13981038 0.15692003 -0.08076521

fc3.bias f4 [10]
000000 49 cf b3 bd 3c 1c 1b bf 40 a5 3a 3e 99 47 92 3e
       -0.08779771 -0.6058996 0.182271 0.2857025
000010 84 90 ed 3e d5 ff c0 bd 46 91 5b bb b2 b0 6f be
       0.4639932 -0.09423796 -0.0033503338 -0.23407248
000020 89 2e af 3e 13 e1 9a be
       0.3421519 -0.30249843
